implementing machine learning model for traffic management/models/model_city_1.bin (torch, 275066 bytes, 6 tensors)

linear1.weight f4 [256, 4]
00000000: 31ad 93bf 4046 dc3d 4a38 a4be b4d6 b6bd
00000010: 7cb9 0f3f 1f73 18c0 5d23 60bf d41c 47bf
00000020: aac8 bfbe ca52 c1be 8759 37bf a0c8 b1be
00000030: aa8d 4bbf bbe0 81bf 230f 27bf 8dd1 a1be
00000040: c35f f140 a7a0 52c0 5311 f4bf 8aea ff3f
00000050: c20d 2ac0 93cb ac3d f1f6 41c0 ae40 d43e
00000060: 89c5 5b3e 6006 87bf 6f37 77bf 2ebd e3be
00000070: b39a 20c0 184f 74be ded6 00c0 c701 61c0
00000080: 2827 7bbf 5127 85be d400 20bf 1628 c9be
00000090: 120c eebe f398 0dbf f37b e2be 30f2 6abd
000000a0: df8b 82bd 54d2 8bbf f3a2 46bf ee8a 1dbf
000000b0: d1c9 913c 8bfd 39bf d3ef 4cbf 4459 4abf
000000c0: efdd c4bf cff9 6bc0 c59e 57c0 c58a ae40
000000d0: 8523 acbe 6460 d4bc 8fcd 9fbf e651 cfbe
000000e0: 4356 0dbf c4ec 6fc0 55e5 09c0 550f 623f
000000f0: be47 7dc0 1757 8cc0 bd63 64c0 c49b c4bf
00000100: 45f2 2dbf 7aef f3be 29fe 65bf 33f8 95bf
00000110: 547f 3ec0 4bfb bfbe 295b 0cbe 50e8 a7be
00000120: 60ef b2be 82c9 a1be 9096 83bd a8ec 7ebe
00000130: 4883 b6be a5f5 11bf 84ca 5dbf e9c1 3cc0
00000140: e5bf 3dbe 887c a6bf e2e1 6abf 267a 02bf
00000150: 43ac 1dbf 112e afbe 2d2e 7cbf 4812 e4bd
00000160: 01b0 193d 8777 72c0 fdd4 1fc0 ffc3 d440
00000170: 0e90 bebe 6c21 bdbe 9cfd b5be 1a95 01bf
00000180: a19a d4bb 68a7 79be ef18 79bf b4d1 8fbf
00000190: 1c72 6dbf 267c 5c40 3f1d ff3f 6425 12c0
000001a0: e6e5 123e 4b0c 9bbf 4672 81bf 1069 01bf
000001b0: 6aa2 e9be 2c61 63be a819 11be b8ff abbd
000001c0: d282 86bf 0855 e7be 8438 9abe 7c60 5fbf
000001d0: 305b 81bf de14 72bf 4e34 2cbf 96b1 c4be
000001e0: 70e1 3ebe bdb2 86be 39eb 57bf f7bd 5fbf
000001f0: f8a6 fdbe 0035 1fbd d421 a1be ec08 2bbe
00000200: 5e95 b1be 0897 35be 6116 84bf 823a d3be
00000210: 1b53 cfbf e9ce cbbf 9ca1 a7bf cc52 85bf
00000220: 75b5 7bbe 93df ecbe c837 0bbe 7054 debd
00000230: 863c 76c0 6cf0 40c0 2fca 3a3f 1e74 a940
00000240: 3098 72be 322b c4be d04a 73be 184c 16be
00000250: 1098 10be a0c7 61be 3c4a c8be 4ec4 afbe
00000260: 4ea3 02bf b081 66bd 7045 aebe ec57 15be
00000270: b861 dabe cba4 bfbe d180 ffbe 0702 cabe
00000280: b3e2 a1c0 c564 793f 6f00 2dc0 ef76 cabe
00000290: da44 febe 88ed a0bd 8465 f9be e0be 4d3d
000002a0: 4c2f 2cbe f654 f1be c009 6a3c de9c a0be
000002b0: aebf 7c3d 18a8 d4be 2ad7 2fbf 9e26 54bf
000002c0: 1c9c 7fbe 6209 f3be 63b3 05bf 1818 35be
000002d0: 94e6 febe 65e6 e6be 3042 143d 6d94 a2bd
000002e0: d68a 02bf 03a5 3bbd 4228 42bf 0597 74bf
000002f0: 4c9d 2bc0 8f50 38c0 5ee5 b9be b012 66be
00000300: a3b4 64c0 59fb 2fbf 5415 55c0 6a64 713e
00000310: 71f8 2fc0 e1de 49c0 1f30 41bf aba4 49c0
00000320: 84d8 d6bd 0499 55bf 5f61 98bf b0ae 40be
00000330: b39e 88c0 656e 99bf 0c42 72c0 e231 adc0
00000340: c8fd f9bf 6fc8 823e 3857 05c0 cb24 37bf
00000350: 7e43 1bc0 b79e f7bf adfc 25c0 bfa0 74c0
00000360: ce76 3fbf 7dbd 88ba b9b2 0ebf cc22 59be
00000370: ecb9 09bf 9ee1 8bbf f3e6 b1bf cb97 45bf
00000380: 4b2e bdbf 99c3 5abe fa8a 32c0 ae60 d13e
00000390: e07c 1bbe 9236 9dbf ffa4 28bf ff01 22bf
000003a0: 99af 6dbe 0581 03be 917f 8cbf 537b 59be
000003b0: 70a0 0fc0 41b0 b3bf c401 c0c0 15a3 81c0
000003c0: 00c5 c8bc fa76 f8be 5f2e eabe 02e5 b6be
000003d0: abf6 dbbe 84e4 82bf 21b5 84bf 92d9 a8bf
000003e0: 7458 6dbe e168 d9be 385b 3ebf 10be 04be
000003f0: a29e 39be db87 59bd 0495 b4bf c723 9cbe
-1.1537229 0.107555866 -0.32074195 -0.0892767 0.561424 -2.3820264 -0.8755396 -0.77778363
-0.37457782 -0.37758476 -0.7162098 -0.34723377 -0.7951304 -1.0146707 -0.6525747 -0.31605187
7.5429397 -3.2910554 -1.9067787 1.9993451 -2.6570897 0.08437266 -3.030697 0.41455597
0.21462072 -1.054882 -0.9656896 -0.4448027 -2.509442 -0.23858297 -2.0131145 -3.5157335
-0.9810662 -0.2600656 -0.62501264 -0.39288396 -0.46493584 -0.55311507 -0.4423519 -0.057359874
-0.063743345 -1.0923562 -0.7759239 -0.61540115 0.017796429 -0.726525 -0.8005344 -0.7904246
-1.5380229 -3.687122 -3.3690655 5.4544396 -0.3362085 -0.025924869 -1.2484607 -0.4049217
-0.5520975 -3.748826 -2.1546223 0.88304645 -3.9575038 -4.385631 -3.5685875 -1.5360036
-0.679478 -0.47643644 -0.8984094 -1.1716369 -2.9765215 -0.3749641 -0.1370665 -0.32794428
-0.34948254 -0.3159905 -0.06425202 -0.24894965 -0.35647035 -0.5701545 -0.8663714 -2.9493353
-0.18530233 -1.3006754 -0.9175092 -0.50967634 -0.61590976 -0.34214833 -0.9850796 -0.11136299
0.037521366 -3.7885454 -2.4973748 6.6489253 -0.3721928 -0.3693956 -0.3554505 -0.50618136
-0.0064881598 -0.24380267 -0.9730367 -1.1235871 -0.9275224 3.4450774 1.99308 -2.2835321
0.14345512 -1.2113127 -1.0112998 -0.5055094 -0.45631725 -0.22205037 -0.14169943 -0.08398384
-1.0508673 -0.4518206 -0.30121243 -0.872566 -1.0105953 -0.9456309 -0.6726731 -0.38416737
-0.18640685 -0.2630824 -0.84343296 -0.8739924 -0.4954145 -0.038868904 -0.3147112 -0.16702622
-0.3468427 -0.17733395 -1.031933 -0.41255575 -1.6197237 -1.5922519 -1.3096194 -1.0415893
-0.24580939 -0.46264324 -0.13595498 -0.10855949 -3.847444 -3.0146742 0.7296476 5.2954245
-0.23690867 -0.38314205 -0.23759007 -0.14677465 -0.14120507 -0.22048807 -0.39119136 -0.34329456
-0.51030433 -0.056276023 -0.34037352 -0.14584321 -0.42652678 -0.37430415 -0.49902967 -0.39454672
-5.0589232 0.9741939 -2.7031515 -0.39543864 -0.49661905 -0.078578055 -0.48710263 0.05023086
-0.16814917 -0.47135133 0.014284551 -0.3136968 0.061706237 -0.41534495 -0.6868769 -0.82871425
-0.24961895 -0.47468096 -0.5222685 -0.17684972 -0.49785292 -0.45097652 0.036195934 -0.07938466
-0.50993097 -0.045811664 -0.7584268 -0.9554294 -2.6814756 -2.879917 -0.36307806 -0.22468066
-3.5735252 -0.687429 -3.3294268 0.23573461 -2.7495387 -3.1542284 -0.7546405 -3.1506755
-0.10490516 -0.8343661 -1.1904715 -0.18816638 -4.2693725 -1.1986815 -3.7852812 -5.412339
-1.9530573 0.25543544 -2.0834484 -0.71540517 -2.4259944 -1.9345311 -2.593547 -3.8223112
-0.74790657 -0.0010432448 -0.5574146 -0.2120468 -0.5379932 -1.0928228 -1.3898605 -0.7718474
-1.4779752 -0.21363677 -2.7897325 0.40894073 -0.15184355 -1.2282279 -0.65876764 -0.63284296
-0.23211516 -0.12842186 -1.097643 -0.2123845 -2.2441673 -1.4038163 -6.0002155 -4.0511575
-0.024508 -0.48528272 -0.45738503 -0.35721594 -0.4296163 -1.0225987 -1.0367776 -1.3191397
-0.23178273 -0.4246283 -0.7435794 -0.12963128 -0.1812692 -0.053108077 -1.4107976 -0.30496046

linear1.bias f4 [256]
00000000: 286b d7bf 5ff2 89c0 057e 02be 14f1 c6bf
00000010: aaa6 9dc1 97fa 0fc1 edb4 d5bf a8d5 d6bf
00000020: 1bda 54bf a5fa b4be 11a3 c2bf 8f8b 95bf
00000030: ca07 e9c0 04ff 3ebf 57cc 34c1 e594 3ac0
00000040: fb5a b2bf 7e3f 72c0 2e78 cfbe 870d 81c0
00000050: bfc2 dfbf b231 45bf 7131 6ac1 117c aebf
00000060: e7af 7fbf 9397 5041 bade dfbf 9ba7 43bf
00000070: 4c4b c5bf 9afc c7bf 622d b2bf 96e3 90bf
00000080: 6bc8 57bf c9f4 b0c1 d4b5 57bf 201f 83c1
00000090: fe1b d7be 77eb 45bf 8354 17bf 6fc4 ccbf
000000a0: 56bd a2c1 1bd8 36bf 929d d6be 598d cabf
000000b0: 9873 49bf 020e 7bbf 48eb b5bf 95ba 72c0
000000c0: fb23 f0c0 5f45 2abf 0513 88bf ee96 8fc0
000000d0: 4001 6cc0 85e8 3cc0 7e62 2abf 0eb3 eebf
000000e0: 94b5 a1c0 73e6 cdbf e71a 37bf bfa0 11c1
000000f0: 4be2 fabe 3eb2 9abf 1194 84be 7b86 30bf
00000100: f24f 04bf 0b63 06c0 f28e 06bf aab7 84c1
00000110: 5634 aabf 7378 ecbe 06d9 16bf 8fa2 90c0
00000120: f2c9 ecbf 4264 8ec1 cc51 2ac1 7515 89bf
00000130: de35 0ec0 d61e 81bf 5e7f 03c1 5343 5bbf
00000140: 13e2 93bf 3b1a 15bf e9ff 07c1 361b 67c1
00000150: dc01 48be d04c abbe cbdb 10bf 06a0 09c0
00000160: e296 4dbf 8da6 84bf 5674 f6be 959f 0dbf
00000170: 6716 62c0 6937 8abf 72d7 68bf 9cee c3c1
00000180: 09a8 51bf bd25 b2bf 80c9 68bf 5908 83bf
00000190: f063 8cbf b004 4ebf 3aab 74bf 7525 84bf
000001a0: 0dad 60c0 9e7b 9dbf 6ac9 a9c1 de9c 60c0
000001b0: e0c8 ecbe 06a3 a9be e8fd 71c0 516b 86bf
000001c0: 7719 3fc1 8a0c 73bf 9f42 43bf d696 bbbe
000001d0: c4ad 79bf 0ab8 a6bf e6ba ecbf 0ace 8bbf
000001e0: 704c 88bf 8f9b 07bf f31d 51bf ea4b 1ec0
000001f0: f349 00c0 54ac 16c1 f2a5 b4bf 452c c6bf
00000200: cb73 20bf a41c 43bf 74d1 bdbe 8251 ddbf
00000210: c611 31bf 5e01 4abf f1eb dabf c157 6ebf
00000220: 1802 82be 88c8 95c0 8c60 37bf bb84 13bf
00000230: 5fef 10bf 0970 c9be 655f 68c0 e350 c6c0
00000240: b069 9abf dd7a 4ac0 9b19 9abf d6e0 f2bf
00000250: 516f 93c1 bafb 97bf 74b8 1fbf 6e5c 89bf
00000260: 29e9 4340 2824 9dbf fa6f 81bf 29ef 00c0
00000270: 6db7 32c1 0e53 3abf 7225 33be e6b3 9cc0
00000280: 18f3 a0bf e0cb a4bf 8d7d 5fbf e39d 5bbf
00000290: fe64 c7be 3c2a 99c1 1451 2ebf 685a 9abd
000002a0: a1d8 64bf d6a7 a6bf b89d 04c1 c515 31bf
000002b0: 4ed3 8f40 ef0d d6bf 45f6 f3bf 3bd0 32be
000002c0: 2c32 dcbe 9fa0 17c0 4563 70bf 3e3a 27bf
000002d0: a475 09c0 f118 5cc0 a57c e1c0 1e9a 77bf
000002e0: 8750 2bbf 3145 69bf d79c b7c0 c2f9 80bf
000002f0: fa26 a9bf e25b 3bbf 70e2 7cbf 92ba 42c0
00000300: e85f 10c0 5479 cfbf 9bc0 aebe c105 93bf
00000310: ae9d e6c0 4c85 0cbe d839 8abf 9e37 9abf
00000320: c0d7 79c0 30f3 8fc0 9647 89bf 8209 13bf
00000330: 073b 2bc0 ec73 34bf c798 7ebf 83ea fabf
00000340: 1832 c041 8217 4bc0 98c4 96c0 45bc 52c0
00000350: adc1 01c1 7b5f 8dbf cb71 69bf 8798 b4bf
00000360: 5ea2 0fc1 1035 61c1 41b7 25c0 765f 87c1
00000370: ebe6 febe a186 31bf 4242 c4bf 645c 44bf
00000380: d0d4 79bf 6771 d3bf 4ac1 9ec1 eb0e 3ebf
00000390: 1d4f d5be 2a33 5dbf 96f0 9abe ffdc 0fbf
000003a0: de3f 94bf 6a63 11c1 020d 92be 29d1 c0bf
000003b0: aa0b 8ebe 58c9 52bf 3229 ffbe 162e efc0
000003c0: 203b 0ec1 3df6 1abf ae4e d0c0 6a05 5dc0
000003d0: 7b63 63bf e7fd 20c1 fa4e 15bf 9a54 4cc0
000003e0: 6bf0 05c0 b5db 6dc0 6e17 8bc0 4f3c acbe
000003f0: 90f4 14bf 3a8d 04bf d255 d9bf 3ca1 2b41
-1.6829576 -4.3108363 -0.12743385 -1.5542321 -19.706379 -8.998679 -1.6695839 -1.6783953
-0.831453 -0.35347477 -1.5206014 -1.1683215 -7.282201 -0.7460787 -11.299888 -2.9153378
-1.3934015 -3.7851253 -0.40521377 -4.0329013 -1.7481307 -0.77028954 -14.637071 -1.3631612
-0.9987778 13.037005 -1.7489846 -0.7642762 -1.5413604 -1.5623963 -1.39201 -1.1319454
-0.8429019 -22.119524 -0.8426182 -16.390198 -0.42013544 -0.77312416 -0.5911333 -1.5997447
-20.34245 -0.714235 -0.41917092 -1.5824386 -0.7869201 -0.9806825 -1.4212427 -3.792638
-7.504392 -0.665121 -1.0630804 -4.487174 -3.6875763 -2.9516919 -0.6655654 -1.8648393
-5.0534153 -1.6085953 -0.71525425 -9.101745 -0.49000773 -1.2085645 -0.25894216 -0.689552
-0.51684487 -2.099795 -0.5256187 -16.58968 -1.3297222 -0.46185645 -0.589249 -4.5198436
-1.8499129 -17.798954 -10.64497 -1.0709673 -2.2220378 -1.0087535 -8.2185955 -0.85649604
-1.1553367 -0.5824315 -8.499978 -14.444143 -0.1953196 -0.3345704 -0.5658538 -2.150392
-0.80308354 -1.0363327 -0.48135632 -0.5532163 -3.5326173 -1.079816 -0.90953743 -24.491508
-0.81897026 -1.3917767 -0.90932465 -1.0236923 -1.0967999 -0.804759 -0.9557377 -1.0323931
-3.5105622 -1.230335 -21.223347 -3.5095744 -0.46247005 -0.3313219 -3.7811222 -1.05015
-11.943717 -0.9494101 -0.7627353 -0.36638516 -0.9753077 -1.3024914 -1.8494537 -1.0922253
-1.0648327 -0.5297174 -0.81686324 -2.4733834 -2.0045135 -9.417072 -1.4113142 -1.548226
-0.62676686 -0.7621558 -0.37073863 -1.7290499 -0.69167745 -0.78908336 -1.7103254 -0.9310265
-0.25392222 -4.680729 -0.71631694 -0.57624406 -0.5661525 -0.3934329 -3.6308224 -6.197374
-1.2063503 -3.163749 -1.2039064 -1.8974864 -18.429354 -1.1873696 -0.6239083 -1.0731332
3.061106 -1.2276659 -1.0112298 -2.0145972 -11.169782 -0.7278298 -0.17494753 -4.8969603
-1.2574186 -1.2874718 -0.8730095 -0.8578779 -0.38944238 -19.145622 -0.68092465 -0.07536775
-0.8939305 -1.301997 -8.288506 -0.6917384 4.494544 -1.6723002 -1.905953 -0.17462246
-0.43007028 -2.3691785 -0.93901473 -0.65323246 -2.1478052 -3.4390223 -7.0464654 -0.9671954
-0.6691975 -0.911212 -5.7378955 -1.007622 -1.321502 -0.7318708 -0.98783016 -3.0426373
-2.2558537 -1.6208901 -0.3413132 -1.1486131 -7.206748 -0.13722724 -1.0798903 -1.2048223
-3.9037933 -4.498436 -1.0724971 -0.5743638 -2.6754777 -0.7048938 -0.9945187 -1.9602817
24.02446 -3.1733098 -4.7114983 -3.292741 -8.109784 -1.1044763 -0.9118926 -1.4109048
-8.97714 -14.075455 -2.58931 -16.921612 -0.4978555 -0.6934605 -1.533272 -0.76703477
-0.9759035 -1.6518983 -19.84438 -0.74241513 -0.4166192 -0.86406195 -0.30261678 -0.5619659
-1.1581991 -9.086771 -0.2852555 -1.5063831 -0.27743274 -0.82338476 -0.49836117 -7.4743757
-8.889435 -0.6053198 -6.5096045 -3.4534554 -0.8882367 -10.061988 -0.58323634 -3.1926637
-2.092799 -3.7165349 -4.34661 -0.33639762 -0.5818567 -0.51777995 -1.6979315 10.726864

linear2.weight f4 [256, 256]
00000000: ec55 31bf c86b 8fbf 397b 20bf c891 f63e
00000010: 5ae8 c43d 176c f33d 84cc 15bf 3c26 5f3e
00000020: 321a 72be 05c9 30bb bb28 7abf 0660 7bbe
00000030: fb67 1cbf 24e7 30be 3f18 cfbf bd03 493d
00000040: 2f7c 8fbf b3b0 0a3f b896 6a3d b8c6 a9bc
00000050: 5537 123f c4f2 c4bd 2286 d8bf 8df6 57bf
00000060: 56fc a9bc bcda 4dbf 0d4e 18bf c006 00bb
00000070: 881f a13c 861a 7ebe 9b66 27be 1b4f 873e
00000080: f441 583e 7c8b f73c eca1 12bf d781 bdbf
00000090: 906b f5be 4c85 cabc 689f 613c 17c5 083f
000000a0: 9667 b03e a85d 66bd 28c8 5c3c 11bc 2bbf
000000b0: ad8f 4ebf 7db0 ef3e 53e3 d73e d4c6 00bf
000000c0: c964 2a3f 2f8d 02be 5597 7fbd b310 013f
000000d0: f86b 3cbc fe1d 393d 4065 bbbe 05e9 21bf
000000e0: 32eb 87bf 8584 3fbf 44b3 22be e702 ddbe
000000f0: dde0 fd3e 2c92 1ebf 5291 acbe c99c 9ebd
00000100: 7007 fe3e 760a 223f e090 4fbb 699d 15bf
00000110: 5159 51bf bee3 f13e d363 ed3e 4005 e83e
00000120: ba28 793d 11e6 0ebf 4e18 f83e c3dc c1be
00000130: 29d8 1abf 00a4 0639 48e2 5bbf 5993 58be
00000140: e490 32bd 90b1 073c d7f9 e2bf bc25 92bf
00000150: 30e6 9cbc 1acc 233d fdb3 373d c603 87bf
00000160: cab5 d5be 94b0 c53e f86e 49bc 29e7 9bbe
00000170: d8f4 77bd ae9f ccbc d6cf 043f 6852 54bc
00000180: 5320 cdbe 7053 f0be 7a17 133f ebbd 423f
00000190: c89c 8a3e 1e18 cb3e 2ec2 bebe b90e 72bf
000001a0: 1475 d9bc ede8 f43e 25a0 993e f2a1 86be
000001b0: 30ad 7e3e 2353 023d de3b 69bf e064 063f
000001c0: 00f0 f238 1205 5a3f 6537 69be 53ab 02bf
000001d0: 5ef9 c5be d1bd 003f 8559 053f 490e 0fbe
000001e0: 8c40 efbe 161b 1bbd 7352 01bf 2fc5 b1bf
000001f0: 9de2 033f 76bf 30bf 02af 8e3d e803 503c
00000200: ef5c 0abf 0681 1dbc 5d7e 11be 9486 2bbf
00000210: 7731 293d 7537 76bd 23bf 25be d89f c5be
00000220: d494 273e 7a9c 77bf 7e07 1c3d 82e8 fd3e
00000230: d082 14bf e27a 0bbf c7e7 14bf 4c57 b53e
00000240: 5d66 913d 28a7 64be 1331 25bf 4bb5 edbe
00000250: edac 55bf 7c32 123f 8047 4ebe 70cc 4a3f
00000260: 4a2b cbbf 8352 0d3f 58a3 223c 4592 3abf
00000270: 92b2 6cbf 31ab 043f 8119 87be 7735 4a3e
00000280: 90eb f2bc 21b1 a7be 613e ba3e ace5 3fbe
00000290: 1287 c4be aedd 733f 62f1 083e 220a 643d
000002a0: d2a8 083f bb7a 54bf 5f2e d0be 3c48 8ebd
000002b0: 65f6 bcbe 508b dbbe 70f8 963b 94eb dfbe
000002c0: 10ca 79bd 2690 25bd 89de f33e 99ab a5be
000002d0: 5eb9 89bf 645e a6bf 7a87 0fbf 40a4 63be
000002e0: 0134 003f caa6 7cbe 4ff3 9fbe 7b2e ffbe
000002f0: 1c4a 93bc c861 37bd 1d3c fabe c260 0cbf
00000300: ef52 0bbf 0e2b 48bf 6ae1 40be 88fb 10bf
00000310: 2abb cabf 6422 13bd eda8 17be 3042 97be
00000320: 2781 523f 84fd e6be c746 e8be 065c 9fbe
00000330: 3460 58bf 7c75 42bd abb7 0a3f dac9 97bf
00000340: b73d e7be 2224 23bd a5b3 00be a6f0 85bf
00000350: 7f02 fcbf 9123 083f aa45 77bd 1fbb b4be
00000360: 8017 80bc 19e6 d7bf a00b e7bb da44 60bf
00000370: d09d bdbb a8e2 2c3c 883f 62bd 50e2 09bd
00000380: c53b 82be bc20 543f 2fe7 dbbf bc08 213d
00000390: 1a24 c83e 82a6 e2be c897 6c3c 8866 0dbf
000003a0: 9c96 df3c e580 00bf 4e0d 5b3d c2ca 1b3d
000003b0: 0108 78be 4d34 c43e c677 19bf 4f69 a9bf
000003c0: 6871 a9bc 6f2d febd 20e8 393e 81b1 18bf
000003d0: 95cd 4c3f 667e eabe 9608 0fbd c40b eabc
000003e0: 8425 6c3d b886 42bf 3225 013f 773c 063c
000003f0: 14ab e43e 2b79 123e af8b 90bf e410 17bf
-0.6927173 -1.1204767 -0.6268802 0.48158097 0.0961463 0.11885851 -0.5851519 0.21791929
-0.23642805 -0.0026975286 -0.977184 -0.24548349 -0.6109616 -0.17275673 -1.6179274 0.04907583
-1.1209773 0.5417587 0.057272643 -0.02072464 0.5711568 -0.09616616 -1.6915934 -0.8436058
-0.020750206 -0.8041189 -0.59494096 -0.0019535273 0.019668356 -0.24814805 -0.16347735 0.2642754
0.21118909 0.030217879 -0.57278323 -1.4805249 -0.47933626 -0.024721764 0.013770916 0.53425735
0.3445403 -0.05624166 0.013475455 -0.6708384 -0.8068798 0.46814337 0.42165622 -0.5030339
0.66560036 -0.1274917 -0.06240018 0.50416106 -0.011500351 0.04519462 -0.36600685 -0.63246185
-1.0618651 -0.74811584 -0.15888697 -0.43166277 0.4958562 -0.6194179 -0.3370462 -0.07744748
0.4961505 0.6329721 -0.0031672046 -0.58443314 -0.8177691 0.47244066 0.46365222 0.45316505
0.060829856 -0.55819803 0.48456043 -0.3786374 -0.60486084 0.0001284033 -0.8589215 -0.21149959
-0.04359521 0.00828208 -1.7732495 -1.1417766 -0.01915273 0.03998957 0.044849385 -1.0548027
-0.41740257 0.3861128 -0.012294523 -0.304498 -0.060536236 -0.024978485 0.5187963 -0.0129591
-0.40063724 -0.46938658 0.574577 0.7607104 0.2707274 0.39666837 -0.37257522 -0.94553715
-0.026545085 0.47833958 0.30004993 -0.2629543 0.24870753 0.031817567 -0.91106975 0.52497673
0.00011584163 0.85163987 -0.22775038 -0.5104267 -0.38666815 0.50289637 0.5208972 -0.13970293
-0.46728933 -0.037867628 -0.5051643 -1.3888301 0.5151766 -0.69042146 0.06966974 0.012696244
-0.54048055 -0.009613281 -0.1420836 -0.67002225 0.04130694 -0.06011148 -0.16186194 -0.38598514
0.16365367 -0.9672314 0.038093083 0.49591452 -0.58012104 -0.5448438 -0.58166164 0.35418165
0.07099602 -0.2232939 -0.64528006 -0.46427378 -0.8346699 0.57108283 -0.20144463 0.79218197
-1.5872586 0.5520403 0.0099266395 -0.7287944 -0.92459977 0.5182372 -0.26386645 0.19746958
-0.02965334 -0.32752326 0.36375716 -0.18739957 -0.383843 0.9526013 0.1337333 0.055673726
0.533826 -0.8299977 -0.40660378 -0.06947371 -0.36906734 -0.42879725 0.004607253 -0.4373442
-0.060983717 -0.040420674 0.47630718 -0.3235748 -1.0759695 -1.2997556 -0.56066096 -0.22230625
0.5007935 -0.24673 -0.31240317 -0.4984015 -0.017979674 -0.044770986 -0.48873988 -0.5483514
-0.5442342 -0.78190696 -0.18835989 -0.56633806 -1.5838368 -0.03592147 -0.14810534 -0.29542685
0.8222832 -0.45115292 -0.453665 -0.31124896 -0.84521794 -0.047475323 0.54186505 -1.1858475
-0.45164272 -0.03982938 -0.12568529 -1.0464065 -1.9688262 0.5317927 -0.06036917 -0.35299012
-0.015636206 -1.6867095 -0.0070509464 -0.8760506 -0.005786635 0.010552086 -0.05523637 -0.033663094
-0.25436226 0.8286245 -1.7179927 0.03931497 0.39090043 -0.4426766 0.014440484 -0.55234575
0.027293496 -0.5019668 0.053479485 0.03803516 -0.24221803 0.38321152 -0.59948385 -1.3235263
-0.02068396 -0.124110095 0.18154955 -0.5964585 0.80001193 -0.4579956 -0.034920298 -0.028570063
0.057652965 -0.75986814 0.5044738 0.008193127 0.44661772 0.14304034 -1.1292628 -0.5901015

linear2.bias f4 [256]
00000000: 7387 b0bf 33e2 0ebf 1539 1ebf 0379 08bf
00000010: 1240 00bf a6c2 1cbf e586 66be faed 03bf
00000020: d1bc 78bf 76eb 86bf bf5a a7bf f8aa 11bf
00000030: 6524 24bf 9307 88bf fbea 00bf b2e5 e9be
00000040: c799 f3be 3a75 e0be e986 0cbf c4c4 10bf
00000050: a293 54c0 5bb6 0fbf 4337 18c0 20af 00bf
00000060: 15ae 0ec0 dd77 0fc0 46e7 e9be 30aa 36c0
00000070: 76f1 44be b927 e9be 2cde f4be 681a 2bbf
00000080: 2327 28bf 0bdd f2be ab59 0abf f477 14bf
00000090: 3ae5 a73f 12ae 92bf 4b5a 1fbf 1844 e0bf
000000a0: 4ab1 aabf bb1b 0ebf b144 d9bf 5b24 1abf
000000b0: 054d 25bf d7e8 e6be 66c8 93bf e6cc 09bf
000000c0: ad89 6bbf e0d4 20c0 1c14 12c0 e3b0 0bbf
000000d0: e111 15bf 94f0 09bf 3c16 06bf 14ad 85be
000000e0: 87c8 0dbf 1d37 3fc0 417d 16bf 2290 14c0
000000f0: e8d2 1bbf ac1b d7bf 097e 19bf 4287 54c0
00000100: f2ef 9abf 91bd 08bf f0d8 efbe 743f 0fbf
00000110: e011 cabf e73d 71bf 94d0 77be c8bc f3be
00000120: 080c 08bf 70bd 12be bce1 17bf 8be1 1bbf
00000130: 59c8 00bf a775 12bf b156 1abf 8968 0abf
00000140: d55c 9cbf 0acf 09bf 7a8d 0ebf bf1f 89bf
00000150: 1eca 14bf 49f1 aac0 e133 70bf ed34 99c0
00000160: 99af d8bf 36da c5bf 1d0f 14bf 0cce 07c0
00000170: 10d8 0bbf 1aca 2fbf 037a 28bf 8acf 22bf
00000180: 92ab a2bf c686 bfbe ddc0 4bc0 3fe7 09bf
00000190: 26ee 10bf 6dde 21c1 e42f 0abf 7fcb febe
000001a0: b1a6 febe 1750 2f41 821e c7bf 31b5 10bf
000001b0: 85e2 20bf db4f 0ebf f3c9 0fbf d63b 23bf
000001c0: c4f0 bdbe 082e 0abf cd64 16bf 1bbf 81bf
000001d0: 0769 22bf 998e 1cbf 9f0a 0bbf 5c26 17bf
000001e0: 1f13 bcbe 68d9 12bf 6400 20bf cc87 00c0
000001f0: 5d7e bbc0 65b7 26bf 81f2 0041 c6ef f240
00000200: f17b 22c1 8bcd 1bbf b501 fabe b160 7cbf
00000210: 79a9 d1be 3b5c 1cbf 74c1 17bf 925a 49bf
00000220: 0fc9 e6be 92bc 0140 bab7 1dbf 9293 14bf
00000230: 2f5b 0abf 7125 0ebf 1ddf 09bf b605 90bf
00000240: 8093 08bf 7655 2abf 5d68 10bf 1676 03bf
00000250: 9c99 0abf d62d 14bf 3d7c f6be 89b1 ebbe
00000260: 420b a4bf e1f5 87be 13ff 88bf 69a7 16bf
00000270: 9d02 65bf 338c 15be 114e 32c0 4405 03bf
00000280: b922 1fbf 0a0e 3abf f980 6cbf 5d4a 1dbf
00000290: c25c 2cbf 5701 0cbf b0e9 9fbf d088 edbe
000002a0: c3b7 0cbf e569 05c0 212c c2bf 0036 ffbe
000002b0: 36cf b2c0 01f0 53bf 7bbb debe dd17 13bf
000002c0: db6e 11bf fd0b 1fbf bb62 15bf 76b1 b5c0
000002d0: 55d6 0abf 69a0 54bf e15a 13bf 3d8e f8be
000002e0: 6816 06bf 5288 5bbf 68f9 e340 dfb5 b3bf
000002f0: b713 be40 d083 c7bf 901f 05bf c71e 0ebf
00000300: 2ed9 f3be 4b2a 29bf 5b29 85bf 6635 03bf
00000310: 34d7 2abf df5f 11bf c69d 42bf 85b8 1bc0
00000320: a89f f1bf 2c18 9ebf bdb3 22bf adb4 aac0
00000330: 0587 10bf fefd 0bbf 339c 29bf 909f acc0
00000340: 6156 02bf 1212 48bf 763a 82c1 0888 1ebf
00000350: cccd 85c0 7023 11bf 8e50 0fbf 8731 e8be
00000360: 510e bec0 5b29 1cbf 79cd 0cbf 5084 0cbf
00000370: e541 1bbf 5c5e c0be eefc 13bf 1466 0fbf
00000380: d13b adc0 bbc3 c540 da61 84be 5c51 1abf
00000390: 074d 00bf 5b46 0bbe f7a9 fcbe 2a8a 0fbf
000003a0: 9258 24bf 0739 28bf 3351 5ec0 11fa 8b3f
000003b0: fba7 50bf 03dc 23bf 2135 24bf 9169 26bf
000003c0: 09c1 10bf 289d 82bf dac6 26bf 9526 0cbf
000003d0: 93f6 0fbf b72a 11bf 563d 10bf 068e 12bf
000003e0: 2385 e7be ac64 15bf 5dd4 65bf 83fa 09bf
000003f0: 7db2 3bc0 0bc1 06bf 8218 41c0 1e7e 05bf
-1.3791336 -0.558139 -0.6180585 -0.5330965 -0.50097764 -0.6123451 -0.22512396 -0.51535
-0.9716311 -1.0540607 -1.3074569 -0.569015 -0.64118034 -1.0627311 -0.5035855 -0.45683056
-0.4757826 -0.43839437 -0.54893357 -0.5655024 -3.3215108 -0.5613763 -2.378373 -0.5026722
-2.2293751 -2.2416909 -0.4568426 -2.8541374 -0.19232735 -0.45538118 -0.47825754 -0.6683717
-0.6568472 -0.47434267 -0.5404307 -0.57995534 1.3116829 -1.1459372 -0.6224715 -1.752078
-1.3335354 -0.55511063 -1.6974088 -0.60211724 -0.6457065 -0.45099518 -1.1545532 -0.53828275
-0.9200695 -2.5129929 -2.2824774 -0.5456678 -0.58230406 -0.5388272 -0.52377677 -0.2610861
-0.55384105 -2.9877388 -0.5878487 -2.3212972 -0.6086869 -1.680532 -0.5995794 -3.3207555
-1.2104475 -0.53414255 -0.46845198 -0.55956197 -1.5786705 -0.9423508 -0.2420066 -0.47604966
-0.5314336 -0.14330077 -0.5932882 -0.60891026 -0.50305706 -0.57210773 -0.6028853 -0.5406576
-1.221583 -0.5383154 -0.55684626 -1.0712813 -0.58120906 -5.3419538 -0.9382916 -4.7877107
-1.6928588 -1.5457218 -0.5783556 -2.121951 -0.5462656 -0.6866776 -0.65811175 -0.6359793
-1.2708609 -0.3740751 -3.1836464 -0.5386848 -0.56613386 -10.116803 -0.53979325 -0.4976463
-0.4973655 10.957053 -1.5556185 -0.56526476 -0.6284564 -0.555906 -0.56167525 -0.6376318
-0.37097752 -0.5397649 -0.5874756 -1.0136446 -0.6344151 -0.61155087 -0.5431308 -0.59042907
-0.36733338 -0.57362986 -0.62500596 -2.0082884 -5.859175 -0.6512359 8.059205 7.591769
-10.155259 -0.6086051 -0.48829427 -0.9858504 -0.4094961 -0.6107823 -0.5927956 -0.78653824
-0.4507527 2.0271344 -0.6160847 -0.58037674 -0.54045385 -0.5552588 -0.5385607 -1.1251743
-0.5335007 -0.66536653 -0.56409246 -0.5135206 -0.5414064 -0.5788244 -0.4814166 -0.46033886
-1.2815936 -0.26554778 -1.0702842 -0.588492 -0.8945711 -0.14604263 -2.7860148 -0.5117991
-0.6216236 -0.7267767 -0.92384297 -0.61441594 -0.6732904 -0.54689544 -1.2493191 -0.46393442
-0.549679 -2.0845883 -1.5169717 -0.49845886 -5.5877943 -0.8278809 -0.4350241 -0.5745829
-0.5680978 -0.6212767 -0.58353776 -5.6779127 -0.54233295 -0.83057266 -0.57560545 -0.4854602
-0.5237794 -0.85754883 7.124195 -1.4039878 5.9399066 -1.5587101 -0.52001286 -0.5551571
-0.47626632 -0.6608016 -1.0403246 -0.51253355 -0.66734624 -0.5678691 -0.76021993 -2.4331372
-1.8876848 -1.2351127 -0.6355551 -5.334555 -0.56456023 -0.54684436 -0.66253966 -5.394478
-0.50913054 -0.78152573 -16.278545 -0.6192632 -4.1813717 -0.566947 -0.5598229 -0.45350286
-5.9392476 -0.61000603 -0.55001026 -0.5488939 -0.6064742 -0.3757199 -0.57807815 -0.56015134
-5.413552 6.180143 -0.25855905 -0.60280395 -0.50117534 -0.13601057 -0.49348423 -0.56070197
-0.6419765 -0.65712017 -3.473706 1.0935689 -0.8150632 -0.64007586 -0.6414357 -0.6500483
-0.5654455 -1.020421 -0.65147173 -0.5474637 -0.5623562 -0.567058 -0.5634359 -0.5724796
-0.45218763 -0.5835674 -0.89777166 -0.53897876 -2.932769 -0.5263831 -3.0171208 -0.52145565

linear3.weight f4 [4, 256]
00000000: d966 813d a002 5f3c a34e 173f 705b 393d
00000010: 307d 06bf 0bc6 0a3f add6 8f3e 38d9 6a3d
00000020: 498b 573f 71e9 873f 54f2 153f d824 0b3f
00000030: 3ae4 123f a601 d4bf f09f ecbe 0b2d 013f
00000040: bc2f f6bc 758e 373f 3a37 0d3f be13 173f
00000050: baeb 90be de36 0c3e 1dbb 4940 8408 9d3c
00000060: 35f4 8cbe 78b0 9abe 7dbb 01bf 8bda ac3f
00000070: 1882 3b3e 2630 d53e 369e ecbe 74ae 11bf
00000080: 4ccc 5abd c8ef 813e 5ec5 0a3f 6873 0c3f
00000090: 14aa 1dbf 2ab7 2c3e c456 1d3f 540c 503f
000000a0: 54f4 093f 5943 08bf 3aac 2c3f ce62 193f
000000b0: 05bc 113f 1e14 583d 9efb b3be 8084 1b3d
000000c0: 76a8 073e 2560 e4bf e503 32be 992d 1a3f
000000d0: f489 af3c d648 133f 5e20 4b3d 9322 5a3e
000000e0: 8a6a 2b3e c97a 2040 60c0 963b 3db5 3d3f
000000f0: 0ac7 0d3f 7a57 f4bf 03dd 013f 1b19 fd3f
00000100: 0ae0 05be e0fe 91bc c81c c53e 904a 043d
00000110: 04ea be3f d7c5 8e3f 64ef 583e 84dc 09bf
00000120: aa45 ee3e 2523 9d3e 6936 203f ce32 173f
00000130: f028 97bb 8f40 1c3f af5b 0c3f 5cbf 1ebd
00000140: ddff 4dbe fa98 0e3f 7815 bebe 8074 edbb
00000150: 5643 233f 9194 2f3f e30f 033f e020 d23f
00000160: 6f5e d2be 355b 7a3e e09a febb 8832 f2be
00000170: 7ccd 113f a246 123e a13a 0e3f 3193 0d3f
00000180: 72d3 883e 7cdd 47be 5801 0abf dc3f 08bf
00000190: b4c4 bcbe 6d3d be40 c760 1b3f 2209 f2be
000001a0: 0884 e6bc a02b 3a41 dff5 94bd 0e04 0e3f
000001b0: 035c fe3d 1400 b13c b698 033f 50a4 123f
000001c0: b883 c33e 77b4 203f b7a8 fcbe dd5f 373f
000001d0: 1660 1b3f a09c 163f 6789 00bf f2f4 03bf
000001e0: b8ba c83e 5afc 2a3e c142 0f3f 3167 9e3e
000001f0: 93fe e93d 49ab 843e e091 00c1 4c97 4440
00000200: f77b 30c0 8bad 183f 08c6 4fbd 5f5a 933e
00000210: feb8 b23e cb0d 123f d1c2 173f 4152 493e
00000220: 770a aabe 49a5 8c40 784f 0a3f 9b87 1d3f
00000230: 3711 0e3f 7f34 143f 8913 ffbe dd46 c23e
00000240: 013b 01bf 028b 143f d145 01bf ee9d 76bd
00000250: 66fa 193f 92af 123f d870 473d ac9f fbbe
00000260: bbad 83bf de3f 9d3e 0ee7 263e 3bd4 0b3f
00000270: dc06 e63e 187b f13d 27e6 313e 568c 60bd
00000280: 501c cebc 7d34 913f 6967 223e 91f0 153f
00000290: 5418 263f f30e 143f 9f9c 423f f561 a43e
000002a0: 10c2 c6c0 b4ad 10be 13ea f43e c43e 02bd
000002b0: 25a5 a6bf bde4 8abc a353 0d3f 415d efbe
000002c0: e083 1a3f 22a2 103f 5c3a fcbe 0e00 163f
000002d0: 1684 373e 5471 98be f11d 07bf 68d4 503d
000002e0: 07df 07bf 3824 cbbf 14ab d7c0 9c00 e63e
000002f0: 16da da40 63d8 2ebf 2133 e83e 9184 253f
00000300: f948 03bf 49a8 163f f589 723e 809a ecbe
00000310: eb84 363f dd3e 0b3f f9b9 e6be 5a34 8abe
00000320: f23f 21be f046 d83f 0a79 113f eec3 063f
00000330: 5307 febe 6011 f7bc 2ee5 173f 6fb0 1a40
00000340: f249 f33e d220 6c3f 34e3 98bf 5812 183f
00000350: 7ffa ca3e 394b 203f 8abc 1e3f dead 61bd
00000360: 83b4 1e40 0c06 0f3f 3309 1a3f b721 103f
00000370: 3767 08bf 3e29 203f 3f79 1b3f 3b0e 0b3f
00000380: 50a8 af3f 868a 06c0 fd15 b93e 879c 123f
00000390: 0025 1abc 167b cb3e 6dd1 123f d0dc c0bb
000003a0: 4117 163f 4f5c 2d3e 8043 233f a156 e73f
000003b0: fc56 1c3f e9c8 0c3f 5263 133f 09c6 133f
000003c0: 5ca8 e4bc 23ad b03f 7596 0c3f de7d f2be
000003d0: 2b74 f3be d384 0e3f 04c7 183f 28ea 793d
000003e0: 4837 6c3e 48a4 213f 2b26 1c3f f82b 61bc
000003f0: 51a1 13c0 2684 4fbd 9ad3 18bf d204 2dbd
0.06318445 0.013611466 0.59104365 0.045253217 -0.5253477 0.5420844 0.28093472 0.057336062
0.8419691 1.0618116 0.5857289 0.54353094 0.57379496 -1.6563003 -0.46215773 0.50459355
-0.030052058 0.7170175 0.55162394 0.590145 -0.28304845 0.13692805 3.1520455 0.0191691
-0.27530065 -0.3021276 -0.5067671 1.3504194 0.18311346 0.41638297 -0.46214455 -0.5690682
-0.05341749 0.2537825 0.5420741 0.54863596 -0.61587644 0.16866747 0.6146052 0.8126881
0.5388844 -0.53227764 0.67450297 0.5991639 0.5692752 0.05275356 -0.35152906 0.03796816
0.13247856 -1.7841841 -0.17384298 0.60225827 0.021428086 0.57533014 0.049591415 0.21302252
0.1673986 2.5074942 0.0046005696 0.7410467 0.55381835 -1.9089196 0.5072786 1.9773287
-0.13073745 -0.01782173 0.3849852 0.03229767 1.4915166 1.1154126 0.2118507 -0.53852105
0.46537524 0.30690876 0.62583023 0.59061897 -0.0046130344 0.6103601 0.548274 -0.038756713
-0.20117135 0.55702174 -0.37125754 -0.007246554 0.6377462 0.6858607 0.51196116 1.6416283
-0.41087672 0.24448855 -0.0077699274 -0.47304177 0.5695417 0.14284757 0.5555821 0.5530272
0.2672382 -0.19518083 -0.539083 -0.5322244 -0.36868823 5.9449983 0.60694546 -0.47272593
-0.02813913 11.635651 -0.07273459 0.55474937 0.124198936 0.021606483 0.51404893 0.5728197
0.3818643 0.6277537 -0.4934747 0.7163065 0.6069349 0.5883274 -0.5020966 -0.5154563
0.39204955 0.16697827 0.55961233 0.30938104 0.11425509 0.2591193 -8.035614 3.0717344
-2.7575662 0.59639806 -0.050725967 0.28779885 0.34906763 0.57052296 0.5928164 0.19660284
-0.3321111 4.3951764 0.5402751 0.6153504 0.5549502 0.578926 -0.49819592 0.3794469
-0.5048066 0.5802461 -0.50497156 -0.060209207 0.601477 0.5729915 0.0486916 -0.49145257
-1.0287393 0.3071279 0.16299078 0.54620713 0.44927108 0.117910564 0.17372952 -0.054821335
-0.025159985 1.1344143 0.1585976 0.585702 0.6488087 0.5783531 0.76020235 0.32105985
-6.2111893 -0.14128762 0.47834834 -0.03179814 -1.3019148 -0.016954774 0.55205745 -0.46750835
0.60357475 0.56497395 -0.49263275 0.58593833 0.1792148 -0.29773962 -0.5278006 0.050983816
-0.5307469 -1.5870428 -6.7396336 0.4492234 6.839122 -0.6829893 0.45351508 0.64655405
-0.5128322 0.5885053 0.23685439 -0.46211624 0.71296567 0.54392797 -0.4506376 -0.26993066
-0.1574705 1.6896648 0.56825316 0.52642715 -0.49614963 -0.030159652 0.59334075 2.4170187
0.47517353 0.9223758 -1.1944337 0.5940299 0.39644238 0.6261478 0.6200644 -0.055097453
2.4797676 0.558686 0.60170287 0.56301445 -0.53282493 0.6256293 0.6073188 0.5431859
1.372324 -2.1022048 0.36149588 0.5727009 -0.009408236 0.39742345 0.5735081 -0.005885698
0.5862923 0.16929744 0.6377487 1.8073312 0.6107023 0.54994065 0.57573426 0.5772405
-0.027912311 1.3802837 0.5491708 -0.47361654 -0.47549567 0.55671424 0.59678674 0.061014324
0.23067963 0.631413 0.6099574 -0.013743393 -2.306721 -0.050663136 -0.5969788 -0.042240925

linear3.bias f4 [4]
00000000: 6c05 e0c0 fd3e 4b3f 1533 1540 3f47 bebe
-7.000662 0.7939299 2.3312428 -0.3716373
